…
:"stream","name":"stdout","text":["Model: \"model\"\n","__________________________________________________________________________________________________\n"," Layer (type)                Output Shape                 Param #   Connected to                  \n","==================================================================================================\n"," input_1 (InputLayer)        [(None, 350)]                0         []                            \n","                                                                                                  \n"," embedding (Embedding)       (None, 350, 100)             1000000   ['input_1[0][0]']             \n","                                                                                                  \n"," conv1d (Conv1D)             (None, 348, 64)              19264     ['embedding[0][0]']           \n","                                                                                                  \n"," conv1d_1 (Conv1D)           (None, 346, 128)             24704     ['conv1d[0][0]']              \n","                                                                                                  \n"," max_pooling1d (MaxPooling1  (None, 173, 128)             0         ['conv1d_1[0][0]']            \n"," D)                                                                                               \n","                                                                                                  \n"," conv1d_2 (Conv1D)           (None, 171, 128)             49280     ['max_pooling1d[0][0]']       \n","                                                                                                  \n"," conv1d_3 (Conv1D)           (None, 169, 256)             98560     ['conv1d_2[0][0]']            \n","                                                                                                  \n"," max_pooling1d_1 (MaxPoolin  (None, 84, 256)              0         ['conv1d_3[0][0]']            \n"," g1D)                                                                                             \n","                                                                                                  \n"," conv1d_4 (Conv1D)           (None, 82, 256)              196864    ['max_pooling1d_1[0][0]']     \n","                                                                                                  \n"," conv1d_5 (Conv1D)           (None, 80, 512)              393728    ['conv1d_4[0][0]']            \n","                                                                                                  \n"," max_pooling1d_2 (MaxPoolin  (None, 40, 512)              0         ['conv1d_5[0][0]']            \n"," g1D)                                                                                             \n","                                                                                                  \n"," gru (GRU)                   (None, 350, 128)             88320     ['embedding[0][0]']           \n","                                                                                                  \n"," flatten (Flatten)           (None, 20480)                0         ['max_pooling1d_2[0][0]']     \n","                                                                                                  \n"," gru_1 (GRU)                 (None, 256)                  296448    ['gru[0][0]']                 \n","                                                                                                  \n"," concatenate (Concatenate)   (None, 20736)                0         ['flatten[0][0]',             \n","                                                                     'gru_1[0][0]']               \n","                                                                                                  \n"," dense (Dense)               (None, 256)                  5308672   ['concatenate[0][0]']         \n","                                                                                                  \n"," dropout (Dropout)           (None, 256)                  0         ['dense[0][0]']               \n","                                                                                                  \n"," dense_1 (Dense)             (None, 5)                    1285      ['dropout[0][0]']             \n","                                                                                                  \n","==================================================================================================\n","Total params: 7477125 (28.52 MB)\n","Trainable params: 7477125 (28.52 MB)\n","Non-trainable params: 0 (0.00 Byte)\n","___________________________________
…
